_________________________________________________________________
Layer (type)                 Output Shape              Param #   
=================================================================
conv2d_1 (Conv2D)            (None, 148, 148, 64)      1792      
_________________________________________________________________
conv2d_2 (Conv2D)            (None, 146, 146, 64)      36928     
_________________________________________________________________
max_pooling2d_1 (MaxPooling2 (None, 73, 73, 64)        0         
_________________________________________________________________
dropout_1 (Dropout)          (None, 73, 73, 64)        0         
_________________________________________________________________
conv2d_3 (Conv2D)            (None, 71, 71, 32)        18464     
_________________________________________________________________
conv2d_4 (Conv2D)            (None, 69, 69, 32)        9248      
_________________________________________________________________
max_pooling2d_2 (MaxPooling2 (None, 34, 34, 32)        0         
_________________________________________________________________
conv2d_5 (Conv2D)            (None, 32, 32, 16)        4624      
_________________________________________________________________
conv2d_6 (Conv2D)            (None, 30, 30, 16)        2320      
_________________________________________________________________
max_pooling2d_3 (MaxPooling2 (None, 15, 15, 16)        0         
_________________________________________________________________
flatten_1 (Flatten)          (None, 3600)              0         
_________________________________________________________________
dense_1 (Dense)              (None, 128)               460928    
_________________________________________________________________
dense_2 (Dense)              (None, 1)                 129       
=================================================================
Total params: 534,433
Trainable params: 534,433
Non-trainable params: 0
_________________________________________________________________
Found 5216 images belonging to 2 classes.
Found 624 images belonging to 2 classes.
Epoch 1/300

  1/163 [..............................] - ETA: 12:47 - loss: 0.6879 - acc: 0.6562
  2/163 [..............................] - ETA: 10:37 - loss: 0.6640 - acc: 0.6719
…
