_________________________________________________________________
Layer (type)                 Output Shape              Param #   
=================================================================
conv2d_1 (Conv2D)            (None, 31, 31, 64)        832       
_________________________________________________________________
conv2d_2 (Conv2D)            (None, 29, 29, 32)        18464     
_________________________________________________________________
conv2d_3 (Conv2D)            (None, 27, 27, 16)        4624      
_________________________________________________________________
conv2d_4 (Conv2D)            (None, 25, 25, 8)         1160      
_________________________________________________________________
max_pooling2d_1 (MaxPooling2 (None, 12, 12, 8)         0         
_________________________________________________________________
conv2d_5 (Conv2D)            (None, 10, 10, 8)         584       
_________________________________________________________________
flatten_1 (Flatten)          (None, 800)               0         
_________________________________________________________________
dense_1 (Dense)              (None, 2888)              2313288   
_________________________________________________________________
dense_2 (Dense)              (None, 1)                 2889      
=================================================================
Total params: 2,341,841
Trainable params: 2,341,841
Non-trainable params: 0
_________________________________________________________________
Found 5216 images belonging to 2 classes.
Found 624 images belonging to 2 classes.
Epoch 1/300

  1/163 [..............................] - ETA: 4:05 - loss: 0.6998 - acc: 0.2188
  2/163 [..............................] - ETA: 2:30 - loss: 0.6783 - acc: 0.5000
…
