_________________________________________________________________
Layer (type)                 Output Shape              Param #   
=================================================================
conv2d_1 (Conv2D)            (None, 31, 31, 16)        208       
_________________________________________________________________
leaky_re_lu_1 (LeakyReLU)    (None, 31, 31, 16)        0         
_________________________________________________________________
conv2d_2 (Conv2D)            (None, 30, 30, 36)        2340      
_________________________________________________________________
leaky_re_lu_2 (LeakyReLU)    (None, 30, 30, 36)        0         
_________________________________________________________________
conv2d_3 (Conv2D)            (None, 29, 29, 64)        9280      
_________________________________________________________________
leaky_re_lu_3 (LeakyReLU)    (None, 29, 29, 64)        0         
_________________________________________________________________
conv2d_4 (Conv2D)            (None, 28, 28, 100)       25700     
_________________________________________________________________
leaky_re_lu_4 (LeakyReLU)    (None, 28, 28, 100)       0         
_________________________________________________________________
conv2d_5 (Conv2D)            (None, 27, 27, 144)       57744     
_________________________________________________________________
leaky_re_lu_5 (LeakyReLU)    (None, 27, 27, 144)       0         
_________________________________________________________________
average_pooling2d_1 (Average (None, 1, 1, 144)         0         
_________________________________________________________________
flatten_1 (Flatten)          (None, 144)               0         
_________________________________________________________________
dense_1 (Dense)              (None, 864)               125280    
_________________________________________________________________
dense_2 (Dense)              (None, 288)               249120    
_________________________________________________________________
dense_3 (Dense)              (None, 1)                 289       
=================================================================
Total params: 469,961
Trainable params: 469,961
Non-trainable params: 0
_________________________________________________________________
Found 5216 images belonging to 2 classes.
Found 624 images belonging to 2 classes.
Epoch 1/300

  1/163 [..............................] - ETA: 4:25 - loss: 0.6839 - acc: 0.7500
  2/163 [..............................] - ETA: 3:01 - loss: 0.6631 - acc: 0.7188
…
